7767517
40 47
Input            data             0 1 data 0=300 1=300 2=1
Split            splitncnn_0      1 3 data data_splitncnn_0 data_splitncnn_1 data_splitncnn_2
Convolution      conv1_1          1 1 data_splitncnn_2 conv1_1 0=16 1=5 2=1 3=2 4=0 5=1 6=400
ReLU             relu1_1          1 1 conv1_1 conv1_1_relu1_1
Convolution      conv2_1          1 1 conv1_1_relu1_1 conv2_1 0=24 1=3 2=1 3=2 4=1 5=1 6=3456
ReLU             relu2_1          1 1 conv2_1 conv2_1_relu2_1
Pooling          pool1            1 1 conv2_1_relu2_1 pool1 0=0 1=2 2=2 3=0 4=0
Convolution      conv3_1          1 1 pool1 conv3_1 0=48 1=3 2=1 3=1 4=1 5=1 6=10368
ReLU             relu3_1          1 1 conv3_1 conv3_1_relu3_1
Convolution      conv4_1          1 1 conv3_1_relu3_1 conv4_1 0=64 1=3 2=1 3=1 4=1 5=1 6=27648
ReLU             relu4_1          1 1 conv4_1 conv4_1_relu4_1
Split            splitncnn_1      1 2 conv4_1_relu4_1 conv4_1_relu4_1_splitncnn_0 conv4_1_relu4_1_splitncnn_1
Pooling          pool3            1 1 conv4_1_relu4_1_splitncnn_1 pool3 0=0 1=2 2=2 3=0 4=0
Convolution      conv5_1          1 1 pool3 conv5_1 0=64 1=3 2=1 3=1 4=1 5=1 6=36864
ReLU             relu5_1          1 1 conv5_1 conv5_1_relu5_1
Normalize        conv4_1_norm     1 1 conv4_1_relu4_1_splitncnn_0 conv4_1_norm 0=0 1=0 2=0.000000 3=64
Split            splitncnn_2      1 3 conv4_1_norm conv4_1_norm_splitncnn_0 conv4_1_norm_splitncnn_1 conv4_1_norm_splitncnn_2
PriorBox         conv4_1_norm_mbox_priorbox 2 1 conv4_1_norm_splitncnn_2 data_splitncnn_1 conv4_1_norm_mbox_priorbox -23300=2,8.000000,16.000000 -23301=0 -23302=0 3=0.100000 4=0.100000 5=0.200000 6=0.200000 7=1 8=1 9=-233 10=-233 11=-233.000000 12=-233.000000 13=0.500000
Convolution      conv4_1_norm_mbox_loc_1 1 1 conv4_1_norm_splitncnn_1 conv4_1_norm_mbox_loc 0=8 1=3 2=1 3=1 4=1 5=1 6=4608
Permute          conv4_1_norm_mbox_loc_perm 1 1 conv4_1_norm_mbox_loc conv4_1_norm_mbox_loc_perm 0=3
Flatten          conv4_1_norm_mbox_loc_flat 1 1 conv4_1_norm_mbox_loc_perm conv4_1_norm_mbox_loc_flat
Convolution      conv4_1_norm_mbox_conf_1 1 1 conv4_1_norm_splitncnn_0 conv4_1_norm_mbox_conf 0=4 1=3 2=1 3=1 4=1 5=1 6=2304
Permute          conv4_1_norm_mbox_conf_perm 1 1 conv4_1_norm_mbox_conf conv4_1_norm_mbox_conf_perm 0=3
Flatten          conv4_1_norm_mbox_conf_flat 1 1 conv4_1_norm_mbox_conf_perm conv4_1_norm_mbox_conf_flat
Normalize        conv5_1_norm     1 1 conv5_1_relu5_1 conv5_1_norm 0=0 1=0 2=0.000000 3=64
Split            splitncnn_3      1 3 conv5_1_norm conv5_1_norm_splitncnn_0 conv5_1_norm_splitncnn_1 conv5_1_norm_splitncnn_2
PriorBox         conv5_1_norm_mbox_priorbox 2 1 conv5_1_norm_splitncnn_2 data_splitncnn_0 conv5_1_norm_mbox_priorbox -23300=2,32.000000,64.000000 -23301=0 -23302=0 3=0.100000 4=0.100000 5=0.200000 6=0.200000 7=1 8=1 9=-233 10=-233 11=-233.000000 12=-233.000000 13=0.500000
Convolution      conv5_1_norm_mbox_loc_1 1 1 conv5_1_norm_splitncnn_1 conv5_1_norm_mbox_loc 0=8 1=3 2=1 3=1 4=1 5=1 6=4608
Permute          conv5_1_norm_mbox_loc_perm 1 1 conv5_1_norm_mbox_loc conv5_1_norm_mbox_loc_perm 0=3
Flatten          conv5_1_norm_mbox_loc_flat 1 1 conv5_1_norm_mbox_loc_perm conv5_1_norm_mbox_loc_flat
Convolution      conv5_1_norm_mbox_conf_1 1 1 conv5_1_norm_splitncnn_0 conv5_1_norm_mbox_conf 0=4 1=3 2=1 3=1 4=1 5=1 6=2304
Permute          conv5_1_norm_mbox_conf_perm 1 1 conv5_1_norm_mbox_conf conv5_1_norm_mbox_conf_perm 0=3
Flatten          conv5_1_norm_mbox_conf_flat 1 1 conv5_1_norm_mbox_conf_perm conv5_1_norm_mbox_conf_flat
Concat           mbox_loc         2 1 conv4_1_norm_mbox_loc_flat conv5_1_norm_mbox_loc_flat mbox_loc 0=0
Concat           mbox_conf        2 1 conv4_1_norm_mbox_conf_flat conv5_1_norm_mbox_conf_flat mbox_conf 0=0
Concat           mbox_priorbox    2 1 conv4_1_norm_mbox_priorbox conv5_1_norm_mbox_priorbox mbox_priorbox 0=1
Reshape          mbox_conf_reshape 1 1 mbox_conf mbox_conf_reshape 0=2 1=-1 2=0 3=0
Softmax          mbox_conf_softmax 1 1 mbox_conf_reshape mbox_conf_softmax 0=1
Flatten          mbox_conf_flatten 1 1 mbox_conf_softmax mbox_conf_flatten
DetectionOutput  detection_out    3 1 mbox_loc mbox_conf_flatten mbox_priorbox detection_out 0=2 1=0.300000 2=300 3=32 4=0.300000
