7767517
48 53
Input            data             0 1 data 0=240 1=320 2=3
Input            im_info          0 1 im_info 0=3 1=-233 2=-233
Interp           data_resize      1 1 data data_resize 0=2 1=0.500000 2=0.500000 3=0 4=0
Convolution      student_v2/conv1_1 1 1 data_resize student_v2/conv1_1 0=8 1=3 2=1 3=2 4=1 5=1 6=216
ReLU             student_v2/relu1_1 1 1 student_v2/conv1_1 student_v2/conv1_1_student_v2/relu1_1
Convolution      student_v2/conv1_2 1 1 student_v2/conv1_1_student_v2/relu1_1 student_v2/conv1_2 0=8 1=3 2=1 3=1 4=1 5=1 6=576
ReLU             student_v2/relu1_2 1 1 student_v2/conv1_2 student_v2/conv1_2_student_v2/relu1_2
Convolution      student_v2/conv1_3 1 1 student_v2/conv1_2_student_v2/relu1_2 student_v2/conv1_3 0=8 1=3 2=1 3=1 4=1 5=1 6=576
ReLU             student_v2/relu1_3 1 1 student_v2/conv1_3 student_v2/conv1_3_student_v2/relu1_3
Pooling          student_v2/pool1 1 1 student_v2/conv1_3_student_v2/relu1_3 student_v2/pool1 0=0 1=3 2=2 3=0 4=0
Convolution      student_v2/conv2_1 1 1 student_v2/pool1 student_v2/conv2_1 0=16 1=3 2=1 3=1 4=1 5=1 6=1152
ReLU             student_v2/relu3_1 1 1 student_v2/conv2_1 student_v2/conv2_1_student_v2/relu3_1
Convolution      student_v2/conv2_2 1 1 student_v2/conv2_1_student_v2/relu3_1 student_v2/conv2_2 0=16 1=3 2=1 3=1 4=1 5=1 6=2304
ReLU             student_v2/relu3_2 1 1 student_v2/conv2_2 student_v2/conv2_2_student_v2/relu3_2
Convolution      student_v2/conv2_3 1 1 student_v2/conv2_2_student_v2/relu3_2 student_v2/conv2_3 0=16 1=3 2=1 3=1 4=1 5=1 6=2304
ReLU             student_v2/relu3_3 1 1 student_v2/conv2_3 student_v2/conv2_3_student_v2/relu3_3
Split            splitncnn_0      1 2 student_v2/conv2_3_student_v2/relu3_3 student_v2/conv2_3_student_v2/relu3_3_splitncnn_0 student_v2/conv2_3_student_v2/relu3_3_splitncnn_1
Pooling          student_v2/pool2 1 1 student_v2/conv2_3_student_v2/relu3_3_splitncnn_1 student_v2/pool2 0=0 1=3 2=2 3=0 4=0
Convolution      student_v2/conv3_1 1 1 student_v2/pool2 student_v2/conv3_1 0=32 1=3 2=1 3=1 4=1 5=1 6=4608
ReLU             student_v2/relu4_1 1 1 student_v2/conv3_1 student_v2/conv3_1_student_v2/relu4_1
Convolution      student_v2/conv3_2 1 1 student_v2/conv3_1_student_v2/relu4_1 student_v2/conv3_2 0=32 1=3 2=1 3=1 4=1 5=1 6=9216
ReLU             student_v2/relu4_2 1 1 student_v2/conv3_2 student_v2/conv3_2_student_v2/relu4_2
Convolution      student_v2/conv3_3 1 1 student_v2/conv3_2_student_v2/relu4_2 student_v2/conv3_3 0=32 1=3 2=1 3=1 4=1 5=1 6=9216
ReLU             student_v2/relu4_3 1 1 student_v2/conv3_3 student_v2/conv3_3_student_v2/relu4_3
Convolution      student_v2/conv3_4 1 1 student_v2/conv3_3_student_v2/relu4_3 student_v2/conv3_4 0=32 1=3 2=1 3=1 4=1 5=1 6=9216
ReLU             student_v2/relu4_4 1 1 student_v2/conv3_4 student_v2/conv3_4_student_v2/relu4_4
Split            splitncnn_1      1 2 student_v2/conv3_4_student_v2/relu4_4 student_v2/conv3_4_student_v2/relu4_4_splitncnn_0 student_v2/conv3_4_student_v2/relu4_4_splitncnn_1
Convolution      student_v2/conv_proposal/conv_3 1 1 student_v2/conv3_4_student_v2/relu4_4_splitncnn_1 student_v2/conv_proposal/conv_3 0=36 1=3 2=1 3=1 4=1 5=1 6=10368
ReLU             student_v2/conv_proposal/conv_3/relu 1 1 student_v2/conv_proposal/conv_3 student_v2/conv_proposal/conv_3_student_v2/conv_proposal/conv_3/relu
Split            splitncnn_2      1 2 student_v2/conv_proposal/conv_3_student_v2/conv_proposal/conv_3/relu student_v2/conv_proposal/conv_3_student_v2/conv_proposal/conv_3/relu_splitncnn_0 student_v2/conv_proposal/conv_3_student_v2/conv_proposal/conv_3/relu_splitncnn_1
Convolution      student_v2/proposal_cls_score 1 1 student_v2/conv_proposal/conv_3_student_v2/conv_proposal/conv_3/relu_splitncnn_1 student_v2/proposal_cls_score 0=18 1=1 2=1 3=1 4=0 5=1 6=648
Convolution      student_v2/proposal_bbox_pred 1 1 student_v2/conv_proposal/conv_3_student_v2/conv_proposal/conv_3/relu_splitncnn_0 student_v2/proposal_bbox_pred 0=36 1=1 2=1 3=1 4=0 5=1 6=1296
Reshape          student_v2/proposal_cls_score_reshape 1 1 student_v2/proposal_cls_score student_v2/proposal_cls_score_reshape 0=0 1=-1 2=2 3=0
Softmax          rpn_cls_prob     1 1 student_v2/proposal_cls_score_reshape rpn_cls_prob 0=0
Reshape          rpn_cls_prob_reshape 1 1 rpn_cls_prob rpn_cls_prob_reshape 0=0 1=-1 2=18 3=0
Proposal         proposal         3 1 rpn_cls_prob_reshape student_v2/proposal_bbox_pred im_info rois 0=16 1=8 2=300 3=32 4=0.700000 5=3
Split            splitncnn_3      1 2 rois rois_splitncnn_0 rois_splitncnn_1
ROIPooling       student_v2/roinet/roi_pool/conv_2 2 1 student_v2/conv2_3_student_v2/relu3_3_splitncnn_0 rois_splitncnn_1 student_v2/roinet/roi_pool/conv_2 0=2 1=2 2=0.125000
InnerProduct     student_v2/roinet/fc2 1 1 student_v2/roinet/roi_pool/conv_2 student_v2/roinet/fc2 0=256 1=1 2=16384
ReLU             student_v2/roinet/fc2/relu 1 1 student_v2/roinet/fc2 student_v2/roinet/fc2_student_v2/roinet/fc2/relu
ROIPooling       student_v2/roinet/roi_pool 2 1 student_v2/conv3_4_student_v2/relu4_4_splitncnn_0 rois_splitncnn_0 student_v2/roinet/roi_pool 0=4 1=4 2=0.062500
InnerProduct     student_v2/roinet/fc1 1 1 student_v2/roinet/roi_pool student_v2/roinet/fc1 0=256 1=1 2=131072
ReLU             student_v2/roinet/fc1/relu 1 1 student_v2/roinet/fc1 student_v2/roinet/fc1_student_v2/roinet/fc1/relu
Concat           student_v2/roinet/fc/output 2 1 student_v2/roinet/fc1_student_v2/roinet/fc1/relu student_v2/roinet/fc2_student_v2/roinet/fc2/relu student_v2/roinet/fc/output 0=0
Split            splitncnn_4      1 2 student_v2/roinet/fc/output student_v2/roinet/fc/output_splitncnn_0 student_v2/roinet/fc/output_splitncnn_1
InnerProduct     student_v2/cls_score 1 1 student_v2/roinet/fc/output_splitncnn_1 student_v2/cls_score 0=2 1=1 2=1024
InnerProduct     bbox_pred        1 1 student_v2/roinet/fc/output_splitncnn_0 bbox_pred 0=8 1=1 2=4096
Softmax          cls_prob         1 1 student_v2/cls_score cls_prob 0=0
