7767517
47 50
Input            data             0 1 data 0=112 1=112 2=1
Convolution      conv1_1          1 1 data conv1_1 0=8 1=5 2=1 3=2 4=0 5=1 6=200
PReLU            relu_conv1_1     1 1 conv1_1 conv1_1_relu_conv1_1 0=8
Pooling          pool1            1 1 conv1_1_relu_conv1_1 pool1 0=1 1=2 2=2 3=0 4=0
Convolution      conv2_1          1 1 pool1 conv2_1 0=16 1=3 2=1 3=1 4=0 5=1 6=1152
PReLU            relu_conv2_1     1 1 conv2_1 conv2_1_relu_conv2_1 0=16
Convolution      conv2_2          1 1 conv2_1_relu_conv2_1 conv2_2 0=16 1=3 2=1 3=1 4=0 5=1 6=2304
PReLU            relu_conv2_2     1 1 conv2_2 conv2_2_relu_conv2_2 0=16
Pooling          pool2            1 1 conv2_2_relu_conv2_2 pool2 0=1 1=2 2=2 3=0 4=0
Convolution      conv3_1          1 1 pool2 conv3_1 0=24 1=3 2=1 3=1 4=0 5=1 6=3456
PReLU            relu_conv3_1     1 1 conv3_1 conv3_1_relu_conv3_1 0=24
Convolution      conv3_2          1 1 conv3_1_relu_conv3_1 conv3_2 0=24 1=3 2=1 3=1 4=0 5=1 6=5184
PReLU            relu_conv3_2     1 1 conv3_2 conv3_2_relu_conv3_2 0=24
Pooling          pool3            1 1 conv3_2_relu_conv3_2 pool3 0=1 1=2 2=2 3=0 4=0
Convolution      conv4_1          1 1 pool3 conv4_1 0=40 1=3 2=1 3=1 4=1 5=1 6=8640
PReLU            relu_conv4_1     1 1 conv4_1 conv4_1_relu_conv4_1 0=40
Split            splitncnn_0      1 4 conv4_1_relu_conv4_1 conv4_1_relu_conv4_1_splitncnn_0 conv4_1_relu_conv4_1_splitncnn_1 conv4_1_relu_conv4_1_splitncnn_2 conv4_1_relu_conv4_1_splitncnn_3
Convolution      conv4_2          1 1 conv4_1_relu_conv4_1_splitncnn_3 conv4_2 0=80 1=3 2=1 3=1 4=1 5=1 6=28800
PReLU            relu_conv4_2     1 1 conv4_2 conv4_2_relu_conv4_2 0=80
InnerProduct     mimic/ip1        1 1 conv4_2_relu_conv4_2 mimic/ip1 0=128 1=1 2=163840
PReLU            relu_ip1         1 1 mimic/ip1 mimic/ip1_relu_ip1 0=128
InnerProduct     mimic/ip2        1 1 mimic/ip1_relu_ip1 mimic/ip2 0=128 1=1 2=16384
PReLU            relu_ip2         1 1 mimic/ip2 mimic/ip2_relu_ip2 0=128
InnerProduct     mimic/ip3        1 1 mimic/ip2_relu_ip2 mimic/ip3 0=212 1=1 2=27136
Convolution      conv4_2_newcls   1 1 conv4_1_relu_conv4_1_splitncnn_2 conv4_2_newcls 0=40 1=3 2=1 3=1 4=1 5=1 6=14400
PReLU            relu_conv4_2_newcls 1 1 conv4_2_newcls conv4_2_newcls_relu_conv4_2_newcls 0=40
InnerProduct     ip1_newcls       1 1 conv4_2_newcls_relu_conv4_2_newcls ip1_newcls 0=128 1=1 2=81920
PReLU            relu_ip1_newcls  1 1 ip1_newcls ip1_newcls_relu_ip1_newcls 0=128
InnerProduct     ip2_newcls       1 1 ip1_newcls_relu_ip1_newcls ip2_newcls 0=128 1=1 2=16384
PReLU            relu_ip2_newcls  1 1 ip2_newcls ip2_newcls_relu_ip2_newcls 0=128
InnerProduct     ip3_newcls       1 1 ip2_newcls_relu_ip2_newcls ip3_newcls 0=212 1=1 2=27136
Reshape          reshape_ip3      1 1 ip3_newcls reshape_ip3 0=1 1=2 2=106 3=0
Convolution      conv4_2_cls      1 1 conv4_1_relu_conv4_1_splitncnn_1 conv4_2_cls 0=40 1=3 2=1 3=1 4=1 5=1 6=14400
PReLU            relu_conv4_2_cls 1 1 conv4_2_cls conv4_2_cls_relu_conv4_2_cls 0=40
InnerProduct     ip1_cls          1 1 conv4_2_cls_relu_conv4_2_cls ip1_cls 0=64 1=1 2=40960
PReLU            relu_ip1_cls     1 1 ip1_cls ip1_cls_relu_ip1_cls 0=64
InnerProduct     ip2_cls          1 1 ip1_cls_relu_ip1_cls ip2_cls 0=64 1=1 2=4096
PReLU            relu_ip2_cls     1 1 ip2_cls ip2_cls_relu_ip2_cls 0=64
InnerProduct     ip3_cls          1 1 ip2_cls_relu_ip2_cls ip3_cls 0=2 1=1 2=128
Softmax          face_score_raw   1 1 ip3_cls face_score_raw 0=0
Convolution      conv4_2_pose     1 1 conv4_1_relu_conv4_1_splitncnn_0 conv4_2_pose 0=40 1=3 2=1 3=1 4=1 5=1 6=14400
PReLU            relu_conv4_2_pose 1 1 conv4_2_pose conv4_2_pose_relu_conv4_2_pose 0=40
InnerProduct     ip1_pose         1 1 conv4_2_pose_relu_conv4_2_pose ip1_pose 0=64 1=1 2=40960
PReLU            relu_ip1_pose    1 1 ip1_pose ip1_pose_relu_ip1_pose 0=64
InnerProduct     ip2_pose         1 1 ip1_pose_relu_ip1_pose ip2_pose 0=64 1=1 2=4096
PReLU            relu_ip2_pose    1 1 ip2_pose ip2_pose_relu_ip2_pose 0=64
InnerProduct     ip3_pose         1 1 ip2_pose_relu_ip2_pose ip3_pose 0=3 1=1 2=192
